checkpoint.pth (torch_old, 334748 bytes, 6 tensors)

fc1.weight f4 [370, 37]
00000000: db46 aabd c3b3 eebc a3b2 b73d 3217 2dbe
00000010: 8005 023e f72f 08be 9868 68bd be55 8c3e
00000020: 4951 3a3e ef6d 433c 58ec ad3c 1728 bebd
00000030: 87ab 8abe bfa5 a43d cda4 2dbf e267 f2bd
00000040: 8f6d 403e 800d babd 5e1e da3d 6724 a2bc
00000050: 8cdd 773d 9b99 f53d 096e 82bc 5490 253c
00000060: 2232 d1bc e7b6 c73c fa75 f23d 8afa dbbd
00000070: 7644 6abd 068a 9c3d a69b 88be 12d4 6d3e
00000080: 4ec2 dbbd 0404 223d 59eb d3bd 24cd 63be
00000090: 3cae 29bd 007f 143e d7b8 27bd ad96 2c3e
000000a0: 4e70 ffbd e033 95be 5828 053e c1df ddbe
000000b0: 2797 ccbe fbee 05bf 06b1 a8bf b796 a63d
000000c0: d754 49bb 14db 05bc 08c4 aa3c 4718 bc3d
000000d0: c6b6 ebbd 57f6 ac3d bf0a 323e ee25 b3bd
000000e0: f298 593d dde0 66be 4740 20be 63d2 223d
000000f0: ced4 42bc 147e 673c b088 70be af30 ec3d
00000100: 7c73 e23d 046c 863d 9d25 013e e870 0b3d
00000110: aa89 823e 7f30 d63c 1b5c 06be 8407 0b3d
00000120: 77e4 693d 5dd4 2e3d 0ce8 313e 4cc8 543e
00000130: 5433 9c3d 1dc7 25be 7f2a 8bbd 42ff ce3d
00000140: 81e6 a9be 27c0 f23d de27 833e 624d 8bbc
00000150: 9a6d 763e 6a54 24bf fa47 d2bd de0f 42be
00000160: 937e abbf 9b09 f53d 0ff9 ef3d 4f65 343c
00000170: aedd 343e 0adc 9f3d 0a62 40be fbbc 8dbc
00000180: 018f 733d b9e8 423d ab1f 9abe 2ef3 7a3c
00000190: 4684 32bc 62f8 683e 1da4 b53d f68c 18bc
000001a0: ec12 a9be 4897 073e 9426 f2bd 805b 833e
000001b0: a988 453d d4b9 9abd aff7 b4bb ecb5 b23d
000001c0: f84b 80be 3270 803e fb83 9dbc a6cc 36be
000001d0: 9202 9dbd ab7a adbc 386f b83d e7b4 143e
000001e0: 0f3a 9d3e a452 1cbd dced 8bbe f754 c73d
000001f0: 1f09 2dbc 83d6 77be d297 7c3d f6de 8abe
00000200: a934 04be 6da2 12be fbc6 a03b 9859 31bd
00000210: 2a89 ac3d 2657 67bb 3ead 503e 6440 d43d
00000220: 8d66 593d b36c 973c 2b45 4e3d e60d 193d
00000230: 8323 a33e 6121 8e3e 1014 e63d fdb7 cdbe
00000240: 1a1b 3fbf dcd2 0abf a3e9 17bc b0d3 83bc
00000250: c090 1fbe 927a e8bd a111 f2bd b8af 74be
00000260: aaa1 953d e4fe a93d 446c ae3e b49b bdbe
00000270: cf1a 0a3d bf35 16bf 6b48 6fba d796 7fbe
00000280: 4210 c93d a5ac 47be 0f40 85be 06e6 60be
00000290: 1276 a1be 877b 4a3d ca9f 1e3e d28a 153e
000002a0: 3dea 4abe 48b3 2a3c 2d48 283e 172a 82bd
000002b0: c30e 813e 5647 dd3c 169d 1bbe 4bd6 903d
000002c0: 1c36 f7bb cbbc 2abe fca1 333e e199 b4be
000002d0: 0b87 a2bd 5392 e0bd d8b8 45be 7324 193e
000002e0: ade5 083c aca6 2fbc 753f 14bc 1907 08be
000002f0: 3f12 c5bd b858 163d 8bb0 ac3c 32dd 513d
00000300: dc4e 813d edb6 dfbe 0c56 fdbe c033 8ebe
00000310: d544 efbe b89e 4a3e 02cb bcbd f688 ad3d
00000320: ae84 9bbd 2a74 60be 6eca 3abe 862c 623e
00000330: dcbf eabe 9fac 453d 0cc0 72be e0da 5c3e
00000340: cd3f 9ebd fe99 efbe 4a00 2a3c f5df 22be
00000350: 44b6 5dbc 9221 11be 243e 72be c3f6 413d
00000360: 1d44 80be a252 d4bc 0b5b 67be a39e 28bf
00000370: 10ac 143d 9b1e b03b 1085 2f3e 0872 abbc
00000380: e00a 94be a554 023e 79d8 1bbf f187 06bd
00000390: 8b58 45be a58a 223c 70a5 213d 73b7 0b3f
000003a0: 45c5 463e 96f7 c03d 4cf2 d6bc 90cb c1bb
000003b0: 65b6 383e a12f 503b 3ec4 30be 23d8 72bd
000003c0: 4235 df3d 9666 8b3d 97a2 75bd dc78 9cbd
000003d0: 21b9 153e d110 efbd 4754 733e e8e6 79bd
000003e0: 5696 5bbe f2a2 073e f5de 88be fe46 883d
000003f0: 113d 263e 6f8c 9bbe bea0 953d e798 a9bd
-0.08314296 -0.029138451 0.08969619 -0.1690338 0.1269741 -0.13299547 -0.056740373 0.27409166
0.1819507 0.011928066 0.021230862 -0.0928499 -0.2708399 0.08039426 -0.6782959 -0.1183622
0.18791793 -0.09084606 0.10650323 -0.019792749 0.060514018 0.119921885 -0.01592161 0.010105211
-0.0255366 0.024379207 0.118389085 -0.10741146 -0.057194196 0.076435134 -0.2668125 0.2322543
-0.1073042 0.03955461 -0.103476234 -0.22246224 -0.04142593 0.14501572 -0.04094776 0.16854353
-0.12472592 -0.2914114 0.13003671 -0.43334773 -0.3995907 -0.5231778 -1.3179023 0.08134215
-0.0030720735 -0.008169908 0.020845428 0.09184318 -0.11509471 0.08445423 0.17386912 -0.08747469
0.053124376 -0.22546716 -0.1564952 0.03975142 -0.011891557 0.01412918 -0.23489642 0.11532723
0.11057183 0.06563571 0.12612005 0.034043223 0.25495654 0.026146172 -0.13121073 0.033942714
0.057102647 0.042682994 0.17373675 0.20779532 0.076269776 -0.16189237 -0.06795215 0.1010728
-0.33183673 0.118530564 0.25616354 -0.017004672 0.24065247 -0.64191306 -0.10267635 -0.18951365
-1.3398002 0.11964723 0.11717426 0.011010482 0.17662689 0.07805641 -0.18787399 -0.017302027
0.05946255 0.047585223 -0.30102286 0.015316768 -0.010895794 0.22751 0.08869193 -0.009310951
-0.3302225 0.13241303 -0.118237644 0.25655746 0.048226032 -0.07554975 -0.0055226902 0.08726105
-0.2505796 0.25085598 -0.019227972 -0.17851505 -0.07666506 -0.021176657 0.09005588 0.14522134
0.30708358 -0.03816475 -0.2732991 0.09733003 -0.010561257 -0.24202923 0.061668225 -0.2712323
-0.12910713 -0.14319773 0.004906533 -0.043298334 0.084245995 -0.0035299747 0.20378587 0.10363844
0.053076316 0.018484449 0.050358932 0.03736677 0.3186303 0.2775984 0.11234295 -0.40179434
-0.7465073 -0.54227996 -0.009272012 -0.016092151 -0.15582561 -0.113515034 -0.11819769 -0.23895156
0.073062256 0.0830057 0.34066975 -0.37032855 0.033716973 -0.5867576 -0.00091279176 -0.24959885
0.09817554 -0.19499452 -0.26025435 -0.21962747 -0.31535393 0.04943421 0.15490642 0.14603737
-0.19815917 0.010418721 0.16433783 -0.06355684 0.25206575 0.027011555 -0.15196642 0.07072123
-0.007544292 -0.16673581 0.17542261 -0.3527365 -0.07935914 -0.10965409 -0.19308794 0.1495531
0.00835554 -0.01072089 -0.009048332 -0.13283958 -0.09622621 0.036705703 0.021080276 0.05123634
0.06313869 -0.4369425 -0.4947971 -0.27773857 -0.46732202 0.19787109 -0.09218408 0.08473389
-0.07593666 -0.21919313 -0.18241283 0.22087297 -0.45849502 0.048260327 -0.23706073 0.21567869
-0.07727013 -0.46797174 0.0103760455 -0.15905745 -0.013532225 -0.14172962 -0.23656517 0.04735447
-0.25051966 -0.025918309 -0.22593324 -0.6586706 0.036296904 0.005374742 0.17140603 -0.020928398
-0.28914547 0.12727602 -0.60877186 -0.032844488 -0.19272058 0.009920751 0.039464414 0.54576796
0.1941119 0.09422223 -0.026238583 -0.005914159 0.18038328 0.003176667 -0.1726236 -0.059288155
0.1089883 0.06806676 -0.05996951 -0.076402396 0.14621402 -0.11673129 0.23762618 -0.061011225
-0.21444067 0.13245752 -0.26732603 0.06654166 0.16234232 -0.3038058 0.0730605 -0.08281117

fc1.bias f4 [370]
00000000: ca0d 9bbd 0134 97bb 62d9 89bc dcf6 283d
00000010: c6f7 46bd c285 00bd aa02 c2bd 6a3d 77be
00000020: e8e9 9abd 43b4 0f3e 8d8e 003e ac21 5f3e
00000030: ba92 f6bd 530f 093e c60d 55bd 2c4f b23d
00000040: 1b47 bdbd af69 17be fca0 07be dcec eb3d
00000050: 310c b8bd 2fa1 47be 86ae 5a3e d20e c43c
00000060: e1c2 89bc c8c4 29be 2825 063e b494 493e
00000070: f195 a3bd e538 143c bdfb 443e 895b 65be
00000080: fd36 7cbd e254 efbd 9867 993c fd60 2a3d
00000090: 76ba 523b 7159 90bd 6e6e 373e 7208 0a3d
000000a0: 5261 ef3d d11e ff3c 6802 fabd a893 36be
000000b0: ebbb 753c 3c5f 46be e9b9 20be 5ace 773d
000000c0: 64fb 123e a5fa 0a3d bd77 b9bd 4e62 1fbe
000000d0: b91a 813b e7c8 f43d a7d3 b23c d18f aabd
000000e0: 06b3 303d 1911 bdbd bda7 fabd d82c 943d
000000f0: 540c 58be 9354 8ebd 547d 153d da06 24be
00000100: 43ed f13d 53dc b5bd 9199 11be efdd efbd
00000110: 234d 48be 8fcd 99bc 5e48 a5bb 1a70 d8bd
00000120: 7ab8 51be 4b44 85bd 7569 2dbb 2aac b63d
00000130: fa64 153e 2ab8 2bbe 4d63 b43c 1874 533d
00000140: 2d0d 50be 7eac fc3c 00e9 ff3d e5d4 c0bd
00000150: 0af4 3a3e 3746 023e 22d9 613d 6997 24bd
00000160: ab93 dd3d db16 bd3c 017b 5d3e 328f ddbd
00000170: b68e d53c cc27 023d 856c 0fbe e53b 663d
00000180: b254 21be 69aa 58be b73f e93d 7024 4ebe
00000190: 7a0c 36be 4d78 b53b 238d e83d 5a11 db3b
000001a0: 1c0b c03d cb03 d9bd 7954 efbd 7f1d 4bbd
000001b0: c888 3e3c 9c0a 37be 3df7 39be e89a 76bd
000001c0: 3a1e 873c e4ef 873d 72c5 f8bd 48ee 22be
000001d0: 3e51 21be 84c7 42bd 1fbe bcbd de51 2cbc
000001e0: 09e5 33be d21b a03d f9cd 16be 46aa 34be
000001f0: a19c e43c 1b9a b2bb 427b 833c be23 9fbc
00000200: 1d94 ea3d 2936 d3bc d7aa 2abe 0103 d83d
00000210: 4e64 b13c d491 86bd c4f4 983d a246 b93d
00000220: c41f ae3d 2080 223d 7f39 ffbd 203a 47bc
00000230: 1daa 02bc 9689 373d dbe7 04be 522a 153e
00000240: f381 0fbe 14e4 16be 51f5 ab3c c171 c5bc
00000250: 43ee dabd fa59 2cbe b528 f13d 2df5 33be
00000260: 55d9 c7bd 3279 b43d 8b50 08be 3161 aebd
00000270: 31f8 2fbe 140c 2cbe c141 d3bd 9479 45bd
00000280: 0468 8a3d 05db 0a3e cdd3 bb3d 3590 e4bd
00000290: a36f 2bbe e62a 44bd 9007 3abe b94c 5cbe
000002a0: f599 bbbd 1f19 4e3d 776a e93c 8099 ec3d
000002b0: 4432 373e 55fe d93d 338a 6e3c 6c21 003d
000002c0: b345 063d 2d20 8fbd d612 35be 3de8 7f3e
000002d0: 258c 3e3b 28d1 56bd d882 f2bd 0a38 edbd
000002e0: 98d1 70be 4dc4 85bd c14e 543d 766b f9bd
000002f0: a0bd c33d 5a37 04bd 0798 72bd 4e36 903d
00000300: c653 023c b880 e8bb de4b c03c fa9f bb3d
00000310: 2b2e 0f3d 73e8 02be 53b4 68be 10fe 42bb
00000320: 1387 4d3d e326 94bd aaa7 1dbe bc0f 03be
00000330: 8ae2 d13d 110c 013e 30b2 33be afd7 413d
00000340: 11cb 063e a5e9 733c c719 cbba be8a 41be
00000350: 68d1 cc3d 4e61 dcbd 94b1 e1bd 90d5 00be
00000360: f1ce 4bbe 6904 113d e68f e03d e12d 1fbe
00000370: 0fc0 663d a20e 0bbe a0e5 4c3d f2bf b1bc
00000380: a4cf abbd 25d5 c0bd cbf7 423d 3e08 8ebc
00000390: 335e 8cbd ce16 01be 7916 373d ac0c be3d
000003a0: 93bb 5abe 12af 4e3d d094 25be e8e5 0dbe
000003b0: 6cf5 70bd 6150 25be e7b9 0bbe 7e46 373d
000003c0: c857 a1bd 24f0 013e 7635 9cbc 6dfa 91bd
000003d0: df2e 273d 6c1a 1e3c ea86 f9bd fd28 35be
000003e0: 2059 5c3d 361e f2bd 5551 2cbe 3354 ce3d
000003f0: 64dc 313c d7a6 d23d b719 3abd b2c2 a9bd
-0.075709894 -0.0046143536 -0.016827289 0.04125105 -0.04857614 -0.03137756 -0.094731644 -0.24144521
-0.07564145 0.14033608 0.12554379 0.21790189 -0.120397046 0.13384752 -0.05201509 0.08706507
-0.09242078 -0.14786409 -0.13245004 0.11519787 -0.089867 -0.1949508 0.21355638 0.023932848
-0.016816558 -0.16578972 0.13100111 0.19685632 -0.079875834 0.009046768 0.19236656 -0.22398199
-0.06157588 -0.11686112 0.018726155 0.0415964 0.0032154596 -0.070483096 0.1791322 0.03369946
0.11688484 0.031142624 -0.1220749 -0.17829764 0.014998416 -0.19372267 -0.15695919 0.060499527
0.1435371 0.03393044 -0.090560414 -0.15564844 0.003939953 0.119523816 0.02182944 -0.08328212
0.04313948 -0.09231777 -0.12239025 0.07235116 -0.21098453 -0.06949725 0.036496475 -0.16018239
0.11812832 -0.08879914 -0.14218737 -0.11712252 -0.19560675 -0.018774776 -0.005044027 -0.10568257
-0.20480528 -0.065071665 -0.0026460562 0.089195564 0.14589301 -0.16769472 0.022020007 0.051624388
-0.20317526 0.03084397 0.12495613 -0.094156064 0.18257156 0.12722097 0.055138715 -0.04018346
0.10819181 0.023082187 0.21628954 -0.10818328 0.026069026 0.031776235 -0.1400624 0.056209464
-0.15754965 -0.21158756 0.11389106 -0.20131087 -0.17778197 0.0055380226 0.11355045 0.006685418
0.09377119 -0.105964266 -0.11686034 -0.049588677 0.011629291 -0.17875141 -0.1816072 -0.060206324
0.016493905 0.066375524 -0.12147035 -0.1591121 -0.15753648 -0.047553554 -0.0921595 -0.0105175655
-0.17567839 0.07817806 -0.1472701 -0.17643079 0.027906718 -0.0054504997 0.016049985 -0.019426223
0.114540316 -0.025782662 -0.16666733 0.10547448 0.021654274 -0.06570783 0.0746856 0.09046675
0.085021526 0.03967297 -0.124621384 -0.012159854 -0.0079751285 0.044808947 -0.12979071 0.14566925
-0.14014415 -0.14735442 0.020991 -0.024102094 -0.10689976 -0.16831198 0.117753424 -0.17573996
-0.0975825 0.08812179 -0.13311975 -0.085146315 -0.17184521 -0.16801482 -0.10315276 -0.04821165
0.06758121 0.13560112 0.09171257 -0.11160318 -0.16741805 -0.047892474 -0.18166947 -0.21513642
-0.09160224 0.050316926 0.02849315 0.11552715 0.17890269 0.10644213 0.014559316 0.031281874
0.032781314 -0.06988559 -0.17682967 0.24990936 0.0029075232 -0.05244556 -0.11841363 -0.11582954
-0.23517454 -0.06531582 0.051832918 -0.121787 0.095576525 -0.03227935 -0.059227016 0.07041608
0.007954543 -0.0070954226 0.023473676 0.091613725 0.03495614 -0.12783985 -0.22725038 -0.0029753484
0.050177645 -0.072339796 -0.1539599 -0.12798971 0.10248287 0.12602259 -0.17548442 0.047324833
0.13163401 0.014887248 -0.0015495353 -0.18900582 0.100008786 -0.10760747 -0.110201985 -0.12581468
-0.1990316 0.035404596 0.109649464 -0.15544845 0.056335505 -0.135798 0.050023675 -0.021697972
-0.08389214 -0.09415654 0.047599595 -0.017337915 -0.068539046 -0.12606356 0.044699166 0.09279761
-0.21360616 0.05045993 -0.16170049 -0.13857234 -0.058827803 -0.16143943 -0.13645135 0.04474496
-0.07878071 0.12689263 -0.01906846 -0.07127843 0.040816184 0.009649854 -0.12183936 -0.17691417
0.053795934 -0.118221685 -0.168279 0.100746535 0.010855768 0.102857284 -0.04543468 -0.08289088

fc2.weight f4 [185, 370]
00000000: c7a2 04be 5b00 5a3e 8fff 5ebe 0633 3ebe
00000010: 3426 e4bc 3815 573d ed0c ad3d 304b 713d
00000020: c8c2 fbbc e069 0c3d 63e1 443d c1c5 3e3e
00000030: 88ed dcbd 3fbc 95bd 1148 c13c 7f74 0b3c
00000040: c49e 5fbe 494f abbd e8d4 48be 095d b5bd
00000050: aa00 963d a56d 60be 375a 50bd 4013 0cbe
00000060: 9b33 c43d 6b22 8f3d 929e 243d 3090 583d
00000070: 0dda 8c3d cb67 3dbe f3a5 793d 5777 6abe
00000080: 5090 db3c de24 cabd 53a2 e8be 7de3 103d
00000090: 7168 823d 8a27 123d 7ffc 61bc 189e 59be
000000a0: 123d 08be ea85 0ebe 284e c73d 975d 18be
000000b0: 2ffa c03c 2b3f b53c a5de 803d d91f ba3d
000000c0: edc0 003e 76af d53d 5c77 c0bd fb13 89be
000000d0: 83d6 b63c 0b81 eabe b8d6 20bd 229e d2be
000000e0: da05 59bc a3c9 05bf 635a 3fbe 0bbd 82be
000000f0: f9fc a73d b24d b63e 6001 a53d 5ba0 85be
00000100: 564e 36be 32e0 433e 8494 60bd b3be 193e
00000110: 454b f8bd 9d38 9abd a6dc f6bd 4c62 b5bd
00000120: 9ea3 cabe 6056 563c 1a38 85bd c097 23be
00000130: a9db 2a3d 8f06 1abb f53b 623b fdfc 7fbc
00000140: 1488 f33d 3023 f9bd cf52 083c 918f 1b3d
00000150: 1e81 eb3d 2758 1abe 04cf 0f3e bf48 8bbe
00000160: 5448 e1be 514d 09be 45f8 b53d fdfb a5bc
00000170: d926 3bbe 2a52 913e 73bd 6ebc be7e 12be
00000180: c9cb 89be 4135 1b3a f20e 0bbd b414 8bbd
00000190: 1fed 1abe c36e 66bb 73b0 4cbd e209 b13c
000001a0: 474c d9bd b986 7ebe 5e01 b53c 4fed 8bbd
000001b0: a3d6 993b 92d0 98bd 54e9 103e a5f4 993d
000001c0: ca20 bebe 2d5e 54bd a7b8 42be ba75 51be
000001d0: 10ca 2ebe de14 2c3e 910a d63d b70c 1b3d
000001e0: 239c 12bd 7603 463d 194a 22be b664 7dbd
000001f0: bcd7 5b3e 97fc 1ebd cc24 79be 05a8 e63c
00000200: 1b6f b4bd 31c8 58bd 68d4 46bd c06a 01be
00000210: 2cfb a0be e1a9 eabd 76f9 1a3e 6f52 08be
00000220: bc24 bbbd a595 e0be a7a6 293e d863 8bbd
00000230: 2481 8bbe 890a 6cbc ef05 02be 18f3 8dbd
00000240: eaff 88bd a20e 683d 0020 2fbe 8055 1ebc
00000250: 0415 3ebe 61f7 c3bd ed84 643e 74be d23d
00000260: fad1 91bc d6ee 9b3e 5c1a 4dbd a7a8 82be
00000270: 7e49 f13d ed60 45bd b6e6 1c3d 9afd 843e
00000280: a4b9 9b3d 1376 c53d c536 07be 0f9e babd
00000290: 9795 acbd e66d 323e 0df8 02bc 834c abbc
000002a0: dd87 d53d 922b 01be e50f 32be 0f9e fdbc
000002b0: b226 233e d377 803d bac6 69bc 86c6 c6bd
000002c0: efc0 f4bc d26c 043d 1bcc 67bd 2558 ba3d
000002d0: c3eb 3ebd 38f5 18be af77 f63c 7e84 d03d
000002e0: 6295 8cbd 6480 10be 5d3b 143d 1f21 afbd
000002f0: ff72 a5bc a635 06be 9a57 9fbe 18d8 14be
00000300: 34d1 20be cb6b f1bd 2614 06be a252 24be
00000310: 0631 823d 2a01 343d be9b adbe 8cfc e43d
00000320: f886 efbd b083 4dbe bdad b73d 8c15 11be
00000330: b11a 24be 41ba 4f3e b951 e6bd a342 ba3d
00000340: 7b99 aebd c7d3 b53d b48b 0abe d0f0 c5bd
00000350: ec68 90bd 9e60 cf3d 9968 343d f2f4 a7bd
00000360: 3332 c7bd 7f0c 06be 5f03 f4bd 450b 293e
00000370: 4848 4d3e c0f4 69bd cd10 86bd 1558 5d3d
00000380: 3d6a e3bd 3b0d 0cbc cddc ac3d 1756 b73d
00000390: ebff 093e 1be5 5e3d e225 9fbd 007a 2bbe
000003a0: 965a 063e ddd3 9ebd cd19 163e ff12 43be
000003b0: 17a4 f8bd 2022 ab3e 5992 783c 070c abbe
000003c0: 40e8 483e d920 133d 2ab4 d63d 769a fbbc
000003d0: 551c a8bb 1c1a f6bc 42fc 9cbd 2b72 68be
000003e0: 7e8c 743d 2cd5 6cbe 2ec8 15bd fc91 93be
000003f0: f6c7 c23d a854 1cbe fe31 50be 01e2 10be
-0.1295272 0.21289198 -0.21777175 -0.18574151 -0.027850248 0.05251047 0.08449731 0.058909595
-0.030732527 0.034280658 0.048066508 0.18630125 -0.10787493 -0.07311296 0.023593934 0.008511662
-0.21837908 -0.08364732 -0.19612467 -0.08855636 0.073243454 -0.21916826 -0.050867286 -0.13679218
0.095801555 0.069889866 0.040190287 0.052871883 0.068775274 -0.18496625 0.060949277 -0.22897087
0.026802212 -0.09870313 -0.45436344 0.0353732 0.06367577 0.03568224 -0.01379311 -0.21251714
-0.13304546 -0.13918272 0.09731704 -0.14879452 0.023556797 0.022124847 0.06292466 0.09088106
0.12573595 0.10433857 -0.09397766 -0.26773056 0.022319084 -0.45801577 -0.03926727 -0.4113627
-0.013246024 -0.522608 -0.18686824 -0.25534853 0.082025476 0.35606152 0.08056903 -0.26098904
-0.1780332 0.19128492 -0.054829136 0.15014152 -0.121237315 -0.075303294 -0.12053804 -0.08856639
-0.39577955 0.013082117 -0.06504841 -0.15975857 0.04171339 -0.0023502444 0.00345206 -0.015624282
0.11891189 -0.121649146 0.008320524 0.037978712 0.114992365 -0.1507269 0.14043814 -0.27203938
-0.44000494 -0.134084 0.08885244 -0.020261759 -0.18276538 0.28383 -0.014571535 -0.14306161
-0.26913288 0.0005920716 -0.0339498 -0.06791058 -0.15129517 -0.0035161234 -0.049972963 0.021611158
-0.10610252 -0.2485608 0.022095378 -0.068323724 0.004694776 -0.07461657 0.14151508 0.07517365
-0.3713439 -0.051847626 -0.19015752 -0.20455065 -0.17069268 0.16804835 0.10451234 0.037853923
-0.035793435 0.048343144 -0.15848579 -0.061863624 0.21469015 -0.038815107 -0.24330443 0.02815629
-0.08810254 -0.052925292 -0.04854241 -0.12638378 -0.3144163 -0.11458183 0.15134224 -0.13312696
-0.09137866 -0.4386417 0.16567479 -0.06806153 -0.27246964 -0.014406809 -0.12697576 -0.06931132
-0.06689437 0.05665458 -0.17102051 -0.0096639395 -0.18562704 -0.09568668 0.22316332 0.10290232
-0.01780032 0.30455655 -0.050073966 -0.25519297 0.11781596 -0.04818814 0.03830596 0.25974733
0.076037675 0.096416615 -0.13204487 -0.091121785 -0.084269695 0.17424735 -0.00799371 -0.020910507
0.104263045 -0.12614277 -0.17388876 -0.030959157 0.1593273 0.06272855 -0.0142685715 -0.09705834
-0.029877154 0.03233034 -0.056591135 0.090988435 -0.04661156 -0.14937294 0.030086366 0.10181521
-0.0686443 -0.14111477 0.036189426 -0.08551239 -0.020196436 -0.13106403 -0.31121522 -0.14535558
-0.15704805 -0.11788138 -0.13093624 -0.16047147 0.06357007 0.043946423 -0.33907884 0.11180982
-0.11695665 -0.20069766 0.08968685 -0.14168376 -0.16025807 0.20285894 -0.11246056 0.09094741
-0.08525368 0.08878284 -0.13529855 -0.09665072 -0.07051262 0.1012585 0.044045065 -0.082010165
-0.097263716 -0.13090704 -0.119147055 0.16508205 0.20047104 -0.057118177 -0.06546173 0.05403908
-0.11104248 -0.008548076 0.08440552 0.08951967 0.13476531 0.05441771 -0.077708974 -0.16745758
0.13120493 -0.077552535 0.1465828 -0.19050215 -0.12140673 0.33424473 0.015171611 -0.33407614
0.19619846 0.035919998 0.10483582 -0.030713301 -0.0051303306 -0.030041747 -0.07665302 -0.22699802
0.059704296 -0.23128194 -0.03656786 -0.28822315 0.09510796 -0.15266669 -0.2033157 -0.14148714

fc2.bias f4 [185]
00000000: daba 5bbd e05f e63c 9766 0fbd bbda 673d
00000010: f2c8 91bd b731 93bb a06c ef3c fe74 343c
00000020: d977 97bc 5506 f23c 8b0d 1bbd 3086 843d
00000030: 2a61 b8bc af8a a2bd 9f1f 87bc dc40 c6bc
00000040: 5c48 a23d 4c90 56bd 8d5c 893d f87a 18bc
00000050: c5db 903c b942 1cbc ab5f c7bd 662e 963c
00000060: 1232 19bb 448c 183e 2ee1 3abd 6c04 493c
00000070: 0d27 4fbb c6f1 05be ead2 e9bc 6f9c 78bd
00000080: 5ac7 5e3d e7e7 963b 1b23 5b3d d2b5 e23c
00000090: 2ce9 94bd b674 403e 2c1f 04bd ce4f cebb
000000a0: 67ae e5bd 2c70 fa3a f40b 6cbd 8d93 4bbd
000000b0: 9023 b43c fdb2 45bd 778f 1bbc 8c15 e33c
000000c0: 62c5 f0bd 7c2f 28bd 62ed 363d 30bd 8ebd
000000d0: 171f 09bd 3949 3bbc 3511 0fbd 84f6 e2bc
000000e0: 3085 bbbd 07d3 4e3e 1078 76bd b3d6 58bc
000000f0: 1f77 70bd 681a 853b a25c f9bc c3d4 0bbd
00000100: 109b 32bd 847a 45bd 7e3d c7bd 988b 08bd
00000110: a5c7 6fbd 4345 113e 38b9 8dbd c846 debb
00000120: 132d 423d 5e38 e13c f6f3 73bc 3ee4 90bd
00000130: f1e9 4f3d f32c 9fbd 0534 213d a3e3 0bbd
00000140: 9e16 abbc 0800 68bd 689b 413c f317 c43b
00000150: f63b 1d3c 8195 8dbd 9575 76bd 7e30 63bd
00000160: 8b4e 1a3c 9af9 91bd 129c 22bd 2454 f3bc
00000170: b553 363e ea75 1dbd 0ebe 4a3d d71c b5bd
00000180: 0522 0f3d 2e9c 77bd c211 51bc 3f27 503d
00000190: ef21 0abd 59ad 193d 4106 1cbc 94f3 0b3d
000001a0: c39e d8bb 162e 8a3b 004a 8abd bb71 9bbd
000001b0: 6725 1fbd 345c c6bd 3dcb f5bc 78f3 0abd
000001c0: 9450 f3ba a510 d73d f225 0ebc fa94 353c
000001d0: b8b4 0fbd d53a cfbc 2ffd eebc 44ad 1bbd
000001e0: 036d 84bd 269e 883c 43dd 50bd 5580 58bd
000001f0: d781 6dbd fc1d 3b3d e192 b5bd 3bc2 f0bc
00000200: 4bd3 5bbc 0648 2dbd f852 103d bc83 abbd
00000210: 8f21 4fbd 7362 91bd 42f7 093e ca51 36bd
00000220: 2470 7f3d 0df0 1ebd d4b6 e8bc 4fac ff3a
00000230: 5d40 febc 669f ffbc 34af 58bd 487a 363b
00000240: 19af c3bc c50b c33c 3dd4 333d a1aa b93c
00000250: 0e40 963b 14bf 043d 22e7 f23c e7b7 e6bc
00000260: 7c76 14bc 6966 973b 1ef2 52bd 9968 5fbd
00000270: 6f39 1fbd a305 f8bc 98b4 1b3d f694 a4bd
00000280: fdaf ea3e 0fde a1bc ee03 5dbd abd5 5b3c
00000290: 0387 633c 55cb 13bd bd39 17bd dea1 cc3b
000002a0: 5b0b ab3d a9b6 693c 47ba 32bd 0a8d f53d
000002b0: 95da 20bd 79f9 a5bb 4263 87bc 3c49 f4bd
000002c0: e2b4 7cbd 79e2 c4bc a824 adbd 0258 f83e
000002d0: a66b 8bbd ed3d 10bb c7a8 77bc 5149 893c
000002e0: 55bd c5bc
-0.053644992 0.028121889 -0.035009947 0.056605082 -0.071184054 -0.0044920105 0.029226601 0.011014221
-0.018489765 0.029544035 -0.037854712 0.06470907 -0.022507269 -0.07936608 -0.01649457 -0.02420085
0.07923958 -0.052383706 0.06707106 -0.009306662 0.01768292 -0.009537392 -0.09735044 0.018332671
-0.0023375791 0.14897257 -0.045624904 0.012269121 -0.003160897 -0.1308051 -0.028542954 -0.06069606
0.054389335 0.0046052816 0.053500276 0.02767459 -0.072710365 0.18794522 -0.03225629 -0.0062961346
-0.11214905 0.0019106916 -0.057628587 -0.049701262 0.021989614 -0.0482664 -0.009494654 0.027720235
-0.11756398 -0.04106091 0.04465998 -0.069696784 -0.033476915 -0.011431032 -0.03492852 -0.027705438
-0.09156263 0.20197688 -0.060173094 -0.013234782 -0.058707353 0.0040619858 -0.030439679 -0.034138452
-0.04360491 -0.048212543 -0.097285256 -0.033336252 -0.058540005 0.14186577 -0.06920093 -0.00678334
0.047406267 0.027492698 -0.014889708 -0.07074784 0.050760213 -0.07772245 0.03935625 -0.03415264
-0.020884808 -0.056640655 0.011816837 0.0059843003 0.009596815 -0.06913281 -0.06017073 -0.055466168
0.00941814 -0.07127686 -0.03969962 -0.029703207 0.17805369 -0.03844253 0.049497657 -0.088433914
0.034944553 -0.06045168 -0.012760581 0.050818678 -0.033723768 0.037518833 -0.009522975 0.03416784
-0.0066107227 0.0042169197 -0.06752396 -0.07590052 -0.03885403 -0.09685555 -0.030004138 -0.033923596
-0.0018563443 0.105012216 -0.008676039 0.011082882 -0.035084456 -0.025296608 -0.029173462 -0.038007036
-0.06466105 0.016676974 -0.05099226 -0.052856762 -0.057985153 0.045682892 -0.088659056 -0.029389491
-0.013417075 -0.042305015 0.035235375 -0.08374736 -0.050569113 -0.07098856 0.13473228 -0.044511594
0.062362805 -0.03880315 -0.028407492 0.0019506308 -0.03103655 -0.031203937 -0.05290146 0.0027843881
-0.023887204 0.023809323 0.043903578 0.02266437 0.0045852726 0.03240879 0.029651228 -0.028163863
-0.009061452 0.0046203625 -0.051500432 -0.05454311 -0.038873132 -0.030276125 0.038014024 -0.080362245
0.45837393 -0.019759206 -0.053958826 0.013417642 0.01388717 -0.036082584 -0.036920298 0.006244882
0.08351775 0.014264741 -0.04363468 0.11989792 -0.039270956 -0.00506514 -0.016526822 -0.11928031
-0.06169594 -0.024033772 -0.08454257 0.48504645 -0.06807642 -0.0022009567 -0.015115923 0.016758593
-0.024138132

fc3.weight f4 [4, 185]
00000000: b358 303c 0d4b 5ebd b43f 28be 761e b63d
00000010: ea9d 10bd 925f 91be 6891 d83e 77c3 303d
00000020: 16d9 5ebe 2d4c 65be 5e98 263d 3c42 8abe
00000030: 0504 4cbc b576 3d3e 2e8a 623e f307 6c3c
00000040: e1b1 1f3e b1db 573c fe31 b83d 6591 69bd
00000050: 57e4 423d 61db 24bc d7cc 213d 7e71 403c
00000060: ca63 f0bc de07 783e b2af a0bc f319 02bd
00000070: 4b6b 38bd a76d 9dbd 8c1d 6ebe b8f8 81bc
00000080: ed98 d13d 8642 cd3d 0110 433a 0233 533e
00000090: bb07 5f3d 6ed4 e63c 3710 98bc 0db7 19be
000000a0: c5f4 91bd 0b5d 783d 24d1 813e 0a82 553d
000000b0: 744b 2dbd 2444 803e 909f 39bd f556 8e3d
000000c0: dbed c7bd c295 e63b d1eb f0bb 5bbf a53c
000000d0: affa b3be 1993 81bc c5f8 9b3c 0d36 123d
000000e0: 4b8b 423e d2f5 ce3d 30dc 32be 71ae 6d3d
000000f0: b037 12bd 8f56 233d 6ed3 4b3d ee02 cc3d
00000100: 1a4a 9e3c 6774 843c 43b1 48be 76da 12bc
00000110: a050 2f3e a54f a63d 8b27 6e3d a53f dfbb
00000120: e7cd 6dbe 5f6f b13d 8dad 6fbe 0593 31bd
00000130: e2bd c03d 5562 00bc 8997 0a3d ac90 62bd
00000140: a2fd 243d 6263 5cbd e335 c53c f6ea 87bd
00000150: 35eb 193e 6936 81bd d468 153a 165d 24bb
00000160: ef1a dd3b 9b9a 253e adce 04bd 0611 abbd
00000170: 9abf a63d 6db9 e4bb 4493 73be 7f9a 783d
00000180: 2234 353d 6205 283b 5a7e edbd 9bd4 53bd
00000190: ab40 b5bc 22ea 10bd 88be 603c 3efa 543e
000001a0: 1d8e 393e 0968 073e 0543 ef3a 6a49 17bd
000001b0: 7114 423d 494d 2abe 6f3c 80bd 9f48 0d3e
000001c0: c82f 69be 879c 913d 6d2f 1cbe d825 eebd
000001d0: 343c 2f3d a473 b03d d9a6 5c3c fb8b b43b
000001e0: b74c 66be 246a aa3c 7019 5e3d 4b1e 16be
000001f0: f145 bbbd 44ab 9bba b91e b9be 8f9e 0f3e
00000200: 1214 8abd 257d 0a3d f13a a03e e64f 293d
00000210: f114 a8bc f970 37bd f747 5e3d ada0 3fbc
00000220: 9cfb 653e aaf8 81bd 7c1a 27be 857b 473d
00000230: 414e bf3c 4e2d 98bd ef58 8bbc 8a7e 9fbd
00000240: 460c fe3d 406c 953d d940 5e3d 590e 293e
00000250: 33d4 58bc 64f1 eb3b f971 ebbd ded5 863b
00000260: 15bd 483e fb5a a93c 474b 64bd 5fa4 0f3d
00000270: f7d4 d0bc d29e 9a3d 8589 e8bd 8507 71be
00000280: b6c1 fd3d 7941 2e3d ce09 4abd d85f 2fbd
00000290: adf6 adbb 0065 cdbe 01ad abbd b379 463d
000002a0: c68c 743e f97a 2ebd 5fa5 863c d904 3a3e
000002b0: ce72 f33d 55b5 8abb 2b84 5b3d b40d 3f3c
000002c0: 905e de3c ccd1 c4bb 1ca1 7cbd 581b 1c3e
000002d0: 52c0 df3d fe5a 1ebc 4adf 51be c804 273d
000002e0: 5108 1dbe a761 23be 29b3 8ebd f15b 9439
000002f0: fefd 3e3d 258b 5b3d f4af aabc 041c 993e
00000300: 2263 48bd 5247 a13d c763 65bd dd56 0dbc
00000310: bf0c 883d 58a0 85bc 8929 83be a6d4 3bbd
00000320: 0bc8 303e d96e 013e 68f7 46bc 4104 143e
00000330: 8d9d 273d b587 d03b fc31 363d 24df fb3c
00000340: e935 3f3b d5a5 19be f7b3 373e 5c61 2f3d
00000350: 1842 573d 74e8 68bc 3770 04bd 13f9 f33d
00000360: b638 f5bd 488c 573e dae7 3b3e d387 823e
00000370: 7285 223e 0a63 e2bc 6245 533d 40dc c53a
00000380: 25ca 4d3d cf62 cabd 8254 b03d efea bd3e
00000390: baf4 6a3d 0819 813d f05b 8c3e 1cb8 963b
000003a0: 847e 073d da22 1bbd 65b3 b6bc 81f8 2ebe
000003b0: 4ee8 f5bc e556 af3c bed4 9e3d 5e02 ce3b
000003c0: 7f92 59bc d2bd af3d a5ba b53d 83ce 863d
000003d0: 9a1a 29bd ee0f 7d3d f53c da3d 9432 cb3c
000003e0: e27a 553c 1c08 2b3d 378b 023d 8682 a8bd
000003f0: 2245 473d 6c59 833e 43cb b93d 781b 403e
0.010763335 -0.054270793 -0.16430551 0.08892529 -0.03530685 -0.28393227 0.42298436 0.04315516
-0.21762499 -0.2239234 0.040672652 -0.27003658 -0.01245213 0.18502314 0.22123024 0.014406192
0.15595199 0.013174937 0.0899391 -0.057023425 0.047581043 -0.01006207 0.03950199 0.011745809
-0.029344458 0.24221751 -0.019615028 -0.03176303 -0.045024198 -0.0768693 -0.23253459 -0.015865669
0.102342464 0.10022454 0.00074410444 0.20624927 0.05445073 0.028177466 -0.01856242 -0.15011235
-0.07126764 0.060635608 0.25354874 0.052125968 -0.042308286 0.25051987 -0.045318186 0.069501795
-0.09762164 0.0070368955 -0.0073523303 0.020232847 -0.35152194 -0.015817212 0.019039521 0.035696078
0.18998449 0.1010548 -0.17466807 0.05802769 -0.03569764 0.03987747 0.049762182 0.09961496
0.019322444 0.016168786 -0.1959887 -0.008963218 0.171206 0.0812066 0.05814318 -0.006813007
-0.23223077 0.086638205 -0.23406048 -0.0433531 0.09411217 -0.007835944 0.03383592 -0.05531375
0.040280946 -0.053805716 0.024073547 -0.06636612 0.1503113 -0.06309206 0.00056995195 -0.0025079898
0.0067475955 0.16172259 -0.032423664 -0.08352856 0.08142014 -0.0069801123 -0.23786646 0.060694214
0.04423917 0.0025637974 -0.11596365 -0.05171643 -0.022125563 -0.035379536 0.013717301 0.20798585
0.18120618 0.1322328 0.0018254226 -0.036935247 0.047382776 -0.16631044 -0.06261527 0.13797234
-0.22772133 0.07109933 -0.15252466 -0.11628312 0.042782024 0.08615807 0.013467514 0.005509851
-0.22490202 0.020802565 0.054223478 -0.14659993 -0.091442 -0.0011876603 -0.36156252 0.14025329
-0.06742109 0.033810753 0.3129497 0.041335963 -0.020517798 -0.044785473 0.05426785 -0.011696023
0.22459263 -0.06346257 -0.16318697 0.04870178 0.023352744 -0.07430516 -0.01701018 -0.07787807
0.12404685 0.07296038 0.054261062 0.1650938 -0.013234186 0.007200407 -0.11496348 0.0041148504
0.19603379 0.020673266 -0.055735853 0.035068866 -0.025492175 0.07549824 -0.11354355 -0.23538025
0.12390463 0.04254291 -0.049325757 -0.042816013 -0.005308947 -0.4011612 -0.08382607 0.048455905
0.23881826 -0.042597745 0.016436277 0.18165912 0.11887132 -0.0042330422 0.053592842 0.011660982
0.0271447 -0.006006455 -0.061677083 0.15244806 0.10925354 -0.009665249 -0.20495334 0.040776044
-0.15335204 -0.1595522 -0.06967766 0.0002829726 0.046628945 0.053599495 -0.020835854 0.29904187
-0.048922665 0.078749314 -0.05600336 -0.008626667 0.06643056 -0.01631181 -0.25617626 -0.045857094
0.1726381 0.12639941 -0.012143947 0.14454748 0.040921737 0.006363834 0.044481263 0.03074605
0.002917642 -0.15004666 0.17939745 0.04281746 0.052553266 -0.014215577 -0.03233358 0.119127415
-0.119737074 0.21049607 0.18350163 0.2549425 0.15871218 -0.027635116 0.05157984 0.0015095547
0.05024161 -0.098821275 0.086098686 0.37093303 0.057362296 0.063036025 0.27413893 0.0045995843
0.03307964 -0.037875034 -0.022302339 -0.17086984 -0.030017998 0.02140374 0.07755421 0.0062869033
-0.013279556 0.08581127 0.0887349 0.06582358 -0.041285135 0.06178277 0.10656158 0.024804391
0.013029786 0.04175578 0.031871047 -0.0822802 0.048649915 0.2565416 0.09071972 0.18760478

fc3.bias f4 [4]
00000000: c28b 8c3e 36fd 813e d9ea 813e 2020 843e
0.27450377 0.25388497 0.25374487 0.2580576
