checkpoint.15.1.pth (torch_old, 334748 bytes, 6 tensors)

fc1.weight f4 [370, 37]
00000000: a004 b2be 768f f83d 3c63 d0bc 5497 dbbd
00000010: c04d 8ebe 07c6 d0bd 07d2 d73d 8690 803e
00000020: e182 23bd 649e 39be c3b3 3f3e a5f2 08bf
00000030: 13b8 1cbd 2a8d 16bf 92d2 98bf c841 1ebe
00000040: 3079 18be a3c5 843e 6907 f0bb 9417 e9bd
00000050: 7f40 03be 079f 4c3e fcbf 4f3e 4515 f5bd
00000060: f826 88be ea8c bb3b fd66 ff3d 1c36 70be
00000070: 1a5c 2b3d 3023 95be 86c4 e5bc d8a0 a4bd
00000080: 2a6c f23d 0676 3cbe ecb2 13be 05cf 8cbe
00000090: c62f 14bd 8f61 143e 848e 193c f2f9 a53d
000000a0: 55f9 43bd 27c0 b0bd d1dd 623e fac2 83bf
000000b0: ae61 33bf 4a0c eabe a335 93bf 4687 1e3e
000000c0: e1e6 0abe 527f 03bd 2f9a 11bc 0e39 903e
000000d0: 08c8 0a3d b42b 79bd 1a2b 293e 19bf 8dbd
000000e0: 052f d83d c49a 22be 1550 73be fce8 403d
000000f0: b8b9 803d e6ae ca3b cfc1 b2be 606c ef3d
00000100: 3a9e 873e c750 db3d 8d94 21be 5f81 87bd
00000110: 8ca6 843e 9e45 903d c741 a5bd d820 063d
00000120: 9b68 453e b6a0 2bbc 9197 8a3e 610c a03d
00000130: adad b4bd 7a30 1dbf 3222 793e 205e debd
00000140: 3fc6 52be 3f65 2e3e 495c 80be 554a 17be
00000150: f5e8 f43d 1f45 8cbe 5414 2bbe fb03 34be
00000160: da9e 983e 6dd6 74be 1b7d 1bbc 9b5c 323e
00000170: 1f73 0bbe 421d 063e f942 ddbe f0a2 31be
00000180: 9be9 673e ed43 0c3c cfa3 98be 8f61 7fbe
00000190: a29a 383d e911 263e 40f7 abbd 419d 323d
000001a0: a8e9 67be c266 43be 44b7 32be 303e c63b
000001b0: f1ba 69ba 4cb4 4f3e 83e5 e0bd 605d b53e
000001c0: d865 adbe fb7e 44be c0d6 7f3e a94f 75bf
000001d0: 7ae1 b03c e7b1 56bc 89f7 883d bc48 c73d
000001e0: 1653 8e3c cd52 f43c 8489 08be fda7 cd3d
000001f0: 7a83 17bd 6574 75be a6ba c83d a9dd 92bd
00000200: 1d51 48bc 337b a6be da5f a4be ce1d dbbc
00000210: d50e 1ebe c5db 423e 3b84 633e 1a7f d13d
00000220: 869b b3bd 36ec 433e 8491 08bd 3df0 9f3e
00000230: 41f1 8f3d 19c8 023e 759a 8d3e d9e1 833b
00000240: 94b4 edbd 17e7 25be db0b a7bc 3dae 203c
00000250: 7ed1 3dbd e5e4 15be ada2 59bd 716e fdbc
00000260: c1ac 0b3d 0f23 c33e e26a d1be 199a 73bf
00000270: b2cb 8ebe 1093 f3bf 2502 e43c bac8 88bc
00000280: a177 c13d 8b49 18bd b2f6 0ebe 3924 97bd
00000290: 7ed3 ae3d 7a48 f13c 38c6 bdbb 7987 4f3e
000002a0: cd6e 7fbb 5d6e a33d baa5 783d 13c7 c53d
000002b0: b35a 803e 6ee1 cc3d 1c18 db3b b88a 3e3e
000002c0: 0a49 fb3d fd89 023e a059 873d d600 4b3d
000002d0: 69e9 3c3e 3264 323e 10c0 413e ad59 993c
000002e0: 07d0 883c 8ec9 0b3e 2f75 08bf 5915 2bbe
000002f0: 65e1 ad3d 571a 513e d58c 303e 68d3 433e
00000300: 8f07 5abd 6f0a d4be 496a 37bf ac45 38be
00000310: 31e6 6f3d a932 0a3d 283b 64be 768d 023e
00000320: ddef bdbd 5edd 723e 7902 c2bd 9cb6 94be
00000330: d447 5ebc 9fff bb3d 6ab4 49bd 8e93 053e
00000340: 5e82 66bb 04a2 0cbe 034f 56be 22ec 6cbc
00000350: ed2a ad3e d5ed e6bd 631e f5be 4fcf 333e
00000360: 80ab 4bbe 15bd 5abd e4e2 33be 7036 2bbe
00000370: 1c28 1ebd 4a67 213c 67fc 79bd c6a2 eabe
00000380: b1e9 ef3d f4b8 4bbd 53a3 903c ddd0 9c3d
00000390: 27d2 b8be ee9b 1ebd cbeb a7be 5253 bc3e
000003a0: f05d c53c fe70 81bd 6f0a 6d3e 6d1d 24bf
000003b0: 6b37 ac3c e3eb 10be e027 3cbf 2e13 a3bd
000003c0: 0a96 4c3e c066 cb3c d905 e9bd e50b 88bd
000003d0: 4a72 663d a460 49be 005d 7cbe 84d8 85be
000003e0: a79d 01bf d3c3 93be c07d 2e3e 84a0 84be
000003f0: 3d03 b33d babd aabd 1b4d c6be 889c b23c
-0.34769154 0.12136738 -0.025437944 -0.10722223 -0.27793694 -0.10194021 0.105381064 0.25110263
-0.039919738 -0.18126827 0.18720917 -0.53495246 -0.038261484 -0.5880915 -1.1939261 -0.15454781
-0.1488998 0.25932035 -0.007325102 -0.1138145 -0.12817572 0.19982539 0.2028808 -0.119669475
-0.2659223 0.0057235854 0.12470815 -0.23458141 0.04183588 -0.29128408 -0.028047811 -0.08038491
0.11837037 -0.18404397 -0.14423722 -0.27501693 -0.036178373 0.1449034 0.009372357 0.08104314
-0.047845203 -0.086304 0.22154929 -1.0293877 -0.7007092 -0.457125 -1.1500744 0.1548129
-0.13564636 -0.032103844 -0.008886858 0.2816853 0.03388217 -0.060832694 0.16520348 -0.069212146
0.10555843 -0.15879351 -0.23761018 0.04709719 0.06285423 0.0061854003 -0.3491349 0.11690593
0.26487905 0.107087664 -0.15779324 -0.066164725 0.25908315 0.070445284 -0.08069187 0.032746166
0.19278185 -0.010475328 0.2706876 0.07814861 -0.088221885 -0.61402094 0.2432945 -0.10857797
-0.20583437 0.1703081 -0.25070408 -0.14774449 0.119584955 -0.27396485 -0.16706973 -0.17579643
0.29808694 -0.23909922 -0.009490277 0.17418139 -0.13618134 0.13097098 -0.4321516 -0.17347312
0.22647707 0.008561117 -0.29812476 -0.2493956 0.045069344 0.1621777 -0.083967686 0.043607
-0.22647727 -0.19082168 -0.17452723 0.006049894 -0.0008916101 0.20283622 -0.10981276 0.35422802
-0.33866763 -0.19189064 0.24984264 -0.95824677 0.02159189 -0.013103939 0.066878386 0.0973067
0.017373603 0.029824639 -0.13333708 0.10041807 -0.03699062 -0.23970182 0.09801225 -0.071711846
-0.01222637 -0.3251587 -0.3210438 -0.02674761 -0.15435345 0.19029148 0.2221841 0.10229321
-0.08769898 0.19133076 -0.0333419 0.31237975 0.070284374 0.12771644 0.27656904 0.004024726
-0.11606708 -0.16201435 -0.020391395 0.009807167 -0.046342365 -0.14638098 -0.053133655 -0.030936452
0.034100298 0.38112685 -0.40901858 -0.9515701 -0.27889782 -1.9029255 0.027833054 -0.016697276
0.094466455 -0.03717951 -0.13961294 -0.07379956 0.08536433 0.029453505 -0.005791452 0.20266522
-0.0038975955 0.079800345 0.060704924 0.09657111 0.25069198 0.10003935 0.0066862237 0.18607605
0.122697905 0.12747951 0.066088915 0.049561344 0.18448414 0.17421034 0.18920922 0.018719519
0.016700758 0.13651106 -0.5330381 -0.16707362 0.08490256 0.20420204 0.17241223 0.19123614
-0.053229865 -0.4141421 -0.71646553 -0.17995328 0.058569137 0.03373972 -0.22288191 0.12749276
-0.09274266 0.23717257 -0.09473128 -0.2904557 -0.01356693 0.09179615 -0.049244322 0.13044569
-0.003517292 -0.13733679 -0.20928578 -0.014460595 0.33821812 -0.112758316 -0.47874746 0.1755955
-0.19889641 -0.05340298 -0.1756702 -0.16719985 -0.03861247 0.009851286 -0.061031725 -0.4582731
0.11714495 -0.049736932 0.017656004 0.07657025 -0.36097834 -0.038722925 -0.32797083 0.36782318
0.024092644 -0.0632038 0.23148511 -0.641074 0.02102252 -0.14152484 -0.73498344 -0.079626426
0.1997911 0.024829268 -0.113780685 -0.06642894 0.05626134 -0.19665772 -0.24644852 -0.2614175
-0.50631183 -0.2886034 0.17040157 -0.25903714 0.08740852 -0.08336969 -0.38730702 0.021803156

fc1.bias f4 [370]
00000000: 0121 4ebd 5b92 67bd fab6 56be 65d0 a83d
00000010: 5be6 bd3d 792b 053c 1fa3 3bbe a24e 20be
00000020: 1102 5abd 8e15 4a3d a409 383e 2b39 bf3d
00000030: 1163 d2bd b3b7 1d3d fe3f 26bd 33e7 a63c
00000040: ef74 86bd 3389 8cbe 0fc6 e8bd 2f1f d13d
00000050: e5b3 ffbd 0155 febd 5797 3d3e 8eec 843d
00000060: d4e2 7e3b 55e2 15be 9c03 793d 3d97 f13d
00000070: ab93 cebd 94fb bd3d f5bf 0e3e 0537 09be
00000080: 75f2 27bd 6d7a e3bd ed47 293d 56bd 8cbb
00000090: 09e3 95bb 9278 8dbd 8e25 2e3e bd82 05be
000000a0: d7d9 063e 1eda b23c 5117 7abd 46b6 52be
000000b0: 5124 6ebd cb23 78be ca29 19be 8a2d 6d3d
000000c0: 568e ff3d d8c6 aebd 27d2 0ebe eb6b 26be
000000d0: b54f 883c 7dd3 863b 7961 1bbb 8ced c2bd
000000e0: 86ab 2e3b 8763 b5bd 7c81 4ebe 3dff 523d
000000f0: 46d3 36be 8b1b 60bd bb86 123e 0873 45bd
00000100: 1e33 563d 486b 0cbe 71f7 34be fc1b 8fbd
00000110: 663a 09be eca3 1fbc 9dbb 8a3d 45e1 6abe
00000120: e676 6bbe 77c6 00be 66ad beba 1528 2e3e
00000130: 456a 9d3e 7a4a 50be a88c 9e3d a5a9 063d
00000140: ab43 3bbe c751 76bc 8ef6 373e dc14 28bd
00000150: f5b2 c33d fe69 0b3e 8fd7 2bbd 387d ae3d
00000160: 0fac 393e 643b 933c df68 be3e b6cb fbbd
00000170: 7492 24bd 7c1f bd3d d0ec 15be c7e4 333d
00000180: fb58 11be 0ebf 3fbe b5aa c53d 7953 65be
00000190: ee6d d9bd c256 a93a 1f01 d33d d4da 073d
000001a0: bba4 03bb 99b3 a53a 5b49 83bd d527 293c
000001b0: 8cb3 fcbc 61a3 6bbe 0128 42be 0295 c7bd
000001c0: b878 43bd 1264 823d f012 07be c396 3abe
000001d0: 0089 6fbe 6906 b2bc 84be cbbd c350 993d
000001e0: 0c0c 5cbe c079 193d 23a6 47be ec21 55be
000001f0: cb55 b13d 9b9b ae3b 421e 2fbc c4cd 51bd
00000200: b2c6 643d e3f2 27bc d304 0cbe 4f9a a4bb
00000210: ebec 1b3e 100b d6bd 7c53 523d f464 c93d
00000220: 490f 023e 9f80 723d 878d c4bd 21d0 16be
00000230: 9f3c a1bd cf35 153e 8f69 f1bd f5a8 063b
00000240: 87d4 4ebe e445 35be 2f77 26bd 0aaa 82bd
00000250: b20a 13be 96ff 24be 2837 113e 9b1b a3bd
00000260: 365b fcbd a96a 5cbd 8c8b 2cbe 3652 b2bd
00000270: 1d02 1cbe d012 d3bd fabd 43bd 329e 8bbc
00000280: 39bc c73d 552c c73d fed1 8abc e310 93bd
00000290: 0f12 67be 7940 00be b140 9dbe 5a74 75be
000002a0: 00b7 e03b 74d1 ca3d 07ba 3d3c 09e3 b23d
000002b0: 7821 003e a400 7f3e f82e 3b3c 5285 54bc
000002c0: 85e3 89bc 276c 3abe 9198 43be 772c 593d
000002d0: 73f8 263c 3293 f8bd 574d f4bd cc99 23be
000002e0: 92c7 58be 0d1f 22be 0c67 8e3d cc5f 8ebd
000002f0: ba67 4fbb 0d1d a7bd 6430 89bd 73f3 993d
00000300: 0b50 9d3d fa30 eb3d 23ae 3bbd 7930 4dbd
00000310: abd0 91bd db01 45be f2f0 20be c139 953d
00000320: caef 503d 6e13 eabd ae56 0ebd b4ce 24be
00000330: 9b41 023e afde 053e d858 96be 9932 27be
00000340: 35e9 9e3d 7349 bcbd dc96 46bc 88a0 1abe
00000350: 4264 f43c 762b 3cbd 8fa9 3abe c0ad 27be
00000360: dc81 0abe d996 583c c241 113e 71bb 14be
00000370: da4e 66bc 5cc4 09be 07d9 c43c d1ad 22bc
00000380: 187d 7cbd d29a f3bd f471 ad3c 155e 32be
00000390: 0d8d a5bd 7622 1fbe 69fa ddbc 4307 4b3d
000003a0: 006d 80be 3508 623d 54f8 26be 066f 46be
000003b0: ae01 c9bc ff64 6dbe de62 93bc f388 a3bc
000003c0: 1a0d c3bd 90fd 213e 542b b0bb 196d 82be
000003d0: ec58 353d 6c0e 9e3d efda e5bd 1193 febd
000003e0: 3bd7 1c3e 5495 c5bd 74a0 14be e6e0 fbbc
000003f0: c253 f4bd 917f e23c 2d20 afbc 19ff b5bc
-0.050324444 -0.05653606 -0.20968238 0.08242873 0.092724524 0.0081280405 -0.18323945 -0.15654996
-0.053224627 0.049336962 0.17972428 0.09337076 -0.10272802 0.038505267 -0.04058837 0.020373916
-0.06565272 -0.27448425 -0.11365902 0.10211026 -0.12485484 -0.12418557 0.18514763 0.06490432
0.0038892524 -0.1463712 0.060794458 0.117964245 -0.10086759 0.092765 0.13940413 -0.13399895
-0.04100271 -0.11107335 0.04132836 -0.0042950315 -0.004574184 -0.069077626 0.17006513 -0.13038154
0.13169037 0.021832522 -0.061057393 -0.20577344 -0.058140103 -0.24232404 -0.14957348 0.057904758
0.1247832 -0.0853402 -0.13947354 -0.16252105 0.01663957 0.004114567 -0.0023709221 -0.09517965
0.002665253 -0.08856874 -0.20166582 0.051512945 -0.17854032 -0.054713767 0.14309208 -0.048205405
0.052294843 -0.137128 -0.17672516 -0.069877595 -0.13401183 -0.009743672 0.06774066 -0.22937496
-0.22994575 -0.12575708 -0.0014547526 0.17007478 0.3074514 -0.2034091 0.07741672 0.03287663
-0.18287532 -0.015034146 0.17965147 -0.041035518 0.09555618 0.13614652 -0.04195362 0.08519977
0.18132041 0.017972656 0.37189385 -0.12294714 -0.04017873 0.09234521 -0.14641118 0.04391935
-0.141941 -0.18725225 0.096517004 -0.22395124 -0.106166705 0.0012919533 0.10302948 0.033167675
-0.00200872 0.0012642025 -0.06410476 0.010324438 -0.030847333 -0.23011543 -0.18960573 -0.09745218
-0.04772255 0.06366743 -0.13190818 -0.18221574 -0.23392105 -0.021731572 -0.09948447 0.07486107
-0.2148897 0.037469625 -0.1949697 -0.20813721 0.08658942 0.005328608 -0.010688366 -0.051221624
0.055853553 -0.01025078 -0.13673715 -0.005023278 0.15227096 -0.10451329 0.05134915 0.098337084
0.12701143 0.059204694 -0.09597307 -0.14727832 -0.07872891 0.14571308 -0.11787712 0.0020547484
-0.2019826 -0.17702442 -0.040641006 -0.063800886 -0.14359549 -0.16113123 0.14181197 -0.0796425
-0.123220846 -0.053812657 -0.16850108 -0.08707087 -0.15235181 -0.103063226 -0.047788598 -0.017043207
0.097526975 0.097252525 -0.016945835 -0.07180955 -0.22565483 -0.12524594 -0.30713418 -0.23970166
0.006857753 0.09903231 0.011579997 0.0873471 0.12512767 0.24902588 0.011424772 -0.012971239
-0.016832123 -0.1820532 -0.19101168 0.05302092 0.010191071 -0.1213745 -0.11928814 -0.15976638
-0.2116988 -0.15832157 0.069532484 -0.069518656 -0.003164752 -0.08159838 -0.06698683 0.075171374
0.076812826 0.11483951 -0.045820367 -0.050095055 -0.071198784 -0.19238989 -0.15716913 0.07286406
0.05100993 -0.11429487 -0.034750633 -0.16094476 0.12720339 0.13073228 -0.29364657 -0.16327895
0.077593245 -0.09193697 -0.012120929 -0.151003 0.029832963 -0.045939885 -0.18228744 -0.16374874
-0.135261 0.013219559 0.14185241 -0.14524628 -0.014056886 -0.13453811 0.024029268 -0.009929136
-0.061642736 -0.11894764 0.021172501 -0.17418702 -0.08083544 -0.1554049 -0.027096944 0.049567472
-0.2508316 0.055183608 -0.16305667 -0.1937829 -0.024536934 -0.23183058 -0.01799148 -0.019962763
-0.09523983 0.15819383 -0.005376259 -0.2547386 0.044274256 0.077175945 -0.11223399 -0.124303944
0.15316479 -0.09647623 -0.14514333 -0.030746888 -0.11930038 0.027648719 -0.021377647 -0.022216367

fc2.weight f4 [185, 370]
00000000: 461a e23c 5c62 eaba f9e5 20bd ccf2 fbbc
00000010: cd19 dc3d ea87 d03d 16a0 96bb ef3e 56bd
00000020: 7810 013e 23b7 443a 3652 18bd 1692 793e
00000030: cf51 103c ccf2 50be f5ad 5d3e 0e4c f83c
00000040: 674e cebd f9a9 7d3e c23f 083b 4a95 96bd
00000050: b2dc 853d 4d57 a23c ee15 3b3d f226 653d
00000060: e1d4 86bd 5380 233c 995c 87bd 54c6 893c
00000070: 6aed 27be bde1 eabd 4e83 583e 8737 95bc
00000080: a6d4 f83d 11b0 edbc a458 54be 94b6 b43c
00000090: 66bc fcbd fa03 083e 90b4 5b3c 42c1 0ebe
000000a0: 1c77 923c 9f08 38bc 65f9 49bd e3b5 c23d
000000b0: 0647 66be 8e12 febd a3b8 8e3d 1ff0 9c3d
000000c0: 18d0 f03d 66a4 f4bd b433 9abc 337d dabc
000000d0: 0b12 463e 6910 d3bd 4a7f c9be e3eb cbbd
000000e0: ad04 a3bb 33db 0ebe cc09 68be 6baa abbd
000000f0: 4d88 703e 110e 783b 17c9 9f3d f536 24be
00000100: b60b 2cbe af44 f03d f952 3cbd 65c0 dd3d
00000110: 4fc6 4bbc 5a80 a43d 31be b3bc 3440 ca3d
00000120: df7f 49ba d9bf 71bd e7ff a1bd 5a8d ff3c
00000130: b9da 703d dedd 4a3d 9dbb a93d d44d 5abc
00000140: 8ba7 ebbd b33b c43d f767 10bd 2a47 a73d
00000150: 7719 4abe c096 f8bd 2026 d83c c930 0c3d
00000160: 8d44 f3bd 3efa 5fbe 5c77 0fbe 4117 d33b
00000170: 829f 733d 347e 923d cc6e d53d fbdf 1d3e
00000180: cd36 e1bd b670 2dbd 49a6 e03c 4d7e 8bbd
00000190: 1f1f baba 5816 09bd 4009 203d 5f87 e73d
000001a0: ad6f 0fbd 7efc 3dbe cc00 ac3d fce0 20be
000001b0: 3608 f9bd fe2c f2bc e03d c53c 1efb 223d
000001c0: 6902 42be 94ef a7bc 3aed 8abe 2f03 183d
000001d0: 1bbe 133e 83fb 83be 9600 a93d fd36 c9bd
000001e0: ef76 4dbd c376 1d3d afa3 543d fbb5 7a3b
000001f0: 690b 453c ad75 9cbc 615f 293d 29b3 533e
00000200: 94db 3bbd 8a47 8cbc b11e b63c 5f7b 7abd
00000210: 71f1 993d ea0b 623d 5004 3ebe 1d78 d33d
00000220: da2c 37be b398 1dbe 196c 64bd 0311 03bd
00000230: b174 003a e1fd 9e3d 5e7b 023e 28e7 6c3d
00000240: b67d bbbc 864a d7bd 569e cbbd c608 1fbe
00000250: e0aa fdbc cc2b 84bd f452 a3bc 10ae 8a3b
00000260: 6cc9 003e d527 8a3d 9320 653e 33d5 11be
00000270: c7f3 0fbd ff9a 83be 732e adbc df29 ef3d
00000280: 82b2 f7bd bbca 74bd 956c f03d 5574 a8be
00000290: 23ef 2abd ba36 22bc ca81 d9bc 4bf7 57bd
000002a0: f2b5 4fbe b150 e63c a70b f4bd 8c8c 8abe
000002b0: 21e7 f03c 15bd eebd 9e50 183e 3b52 853e
000002c0: 9066 86bd e193 ad3b 27e8 aebc 1530 39bc
000002d0: f7a4 f53d 7427 00be 1a01 c53d d4d8 acbd
000002e0: 9c4e b6bd 5083 aebd ed2e 8ebd 57de 75be
000002f0: e1b7 81bd 153f 25bd 2d68 613e 55b2 293e
00000300: d87b 9bbe 0ebf 09be df59 823c 1940 a5be
00000310: 79dc 1bbd eccf 9cbd 731c ecbd 8d6f 4dbb
00000320: 28b5 44be 0aae 92be 4edd b03c 0a7f 00bc
00000330: 722f e93c 8b7f b1bd 0559 993d 065c 483e
00000340: b258 7fbe 3fa7 18bd 252f dcbd 2474 8bbd
00000350: 2c3e 36be 5b1d 403e a0f1 56bd 16e1 ef39
00000360: d7e9 153e 14eb 573d 0b74 c1bc b149 173e
00000370: aade 1bbe 24a8 2bbd 092e 023e f748 853e
00000380: 4863 7f3e 5ebe e6bc 6089 34be c2c9 7c3d
00000390: be00 8fbb b534 7ebd 8f83 02bd 3c52 03be
000003a0: 24dd 4f3d 3bd9 80bc 5fb0 da3d fe1d 84bd
000003b0: 185c 38bb a663 953c 5c25 83bd eeff b4be
000003c0: 9ea7 40bb e69a 2dbe 7834 003e b035 08be
000003d0: 11a7 95bd f559 51be f1b2 a2bc d99b 41be
000003e0: 54a4 8abe d057 2dbc fedc 42be 981e 80bd
000003f0: 545e 8dbd 9464 25be 00ba 41be 859f d63c
0.027600419 -0.0017882097 -0.03928182 -0.030755423 0.107471086 0.101821736 -0.0045967204 -0.052306112
0.12603939 0.0007504096 -0.037187777 0.24372134 0.008808567 -0.2040512 0.2164839 0.030309703
-0.10073548 0.2477187 0.0020789956 -0.073526934 0.06536235 0.019817019 0.04567521 0.055945344
-0.06583572 0.009979325 -0.066094585 0.016818203 -0.1639916 -0.114688374 0.21143839 -0.018214954
0.121499345 -0.029014619 -0.20736939 0.022059716 -0.12340622 0.13282767 0.013409749 -0.1394091
0.017879061 -0.011232524 -0.049310107 0.095073484 -0.22488031 -0.12405883 0.069688104 0.07662987
0.11758441 -0.11945419 -0.018823482 -0.026671028 0.1934282 -0.10305864 -0.39354926 -0.09957101
-0.0049749226 -0.13950805 -0.22659987 -0.08382114 0.23489495 0.003785018 0.07802027 -0.1603659
-0.16801342 0.1173185 -0.045977566 0.10827712 -0.012437417 0.080322936 -0.021941276 0.09875527
-0.0007686596 -0.05902085 -0.079101376 0.031195331 0.05880234 0.049527995 0.082877375 -0.01332422
-0.11506566 0.09581699 -0.0352554 0.0816787 -0.19736277 -0.12138128 0.026385367 0.034226213
-0.118783094 -0.21872804 -0.14010376 0.006441981 0.05947829 0.071529776 0.104215235 0.15417473
-0.109967805 -0.042343818 0.027423041 -0.06811199 -0.0014199949 -0.033468574 0.03907132 0.11305117
-0.03501861 -0.1855335 0.083985895 -0.15710825 -0.12159769 -0.02956247 0.024077356 0.039790265
-0.18946232 -0.020499982 -0.27134115 0.03711241 0.14427988 -0.25777826 0.08252065 -0.09824941
-0.050162252 0.038443338 0.051913913 0.0038255441 0.012026646 -0.019099081 0.041350726 0.20673813
-0.045863703 -0.017123956 0.022231432 -0.061152812 0.075167544 0.055187143 -0.18556333 0.10325644
-0.17888203 -0.15390281 -0.055767152 -0.031998646 0.0004900201 0.07763267 0.12742373 0.057837635
-0.022887092 -0.10512261 -0.099423096 -0.1553069 -0.030965269 -0.06453666 -0.019937016 0.0042321756
0.12576836 0.067458786 0.22375707 -0.14241485 -0.035144594 -0.2570419 -0.021140313 0.11677908
-0.120945945 -0.05976365 0.117394604 -0.32901254 -0.041731965 -0.009900743 -0.026551146 -0.05272607
-0.2028425 0.028114649 -0.11916285 -0.27060354 0.029407086 -0.11657158 0.14874503 0.260393
-0.06562531 0.0052971696 -0.021350933 -0.011302968 0.11994355 -0.1251505 0.09619351 -0.08439794
-0.08901712 -0.085211396 -0.06942544 -0.24010597 -0.063339 -0.040343363 0.22012396 0.16571935
-0.30367923 -0.13451788 0.015911995 -0.32275465 -0.038052056 -0.076568455 -0.11528864 -0.0031347007
-0.1920973 -0.28648406 0.021589901 -0.0078427885 0.028465007 -0.08666905 0.07487682 0.19566354
-0.24936178 -0.037268873 -0.107511796 -0.068092614 -0.17797154 0.18761198 -0.052476525 0.00045753334
0.14639984 0.052714422 -0.023614904 0.14774205 -0.15221658 -0.0419084 0.12712874 0.2603223
0.24940217 -0.028166946 -0.1763053 0.06171585 -0.004364102 -0.062061984 -0.031863745 -0.12824339
0.050748006 -0.015728584 0.10678171 -0.06451033 -0.0028131064 0.018235993 -0.0640361 -0.3535151
-0.0029396783 -0.1695362 0.12520015 -0.1330173 -0.07307256 -0.20444472 -0.019860717 -0.18907107
-0.27078497 -0.010580018 -0.19029614 -0.06255835 -0.06902757 -0.16151649 -0.1891861 0.026199112

fc2.bias f4 [185]
00000000: 996d a4bd 168e d43c 97af dfbc ef97 643d
00000010: 7abe 51bd 2726 2ebc 82a5 f53d 5ecc b03d
00000020: 2ef6 a1bd fafa 24bc 3fa4 08bd f35e a1ba
00000030: b299 acbd 6c0c d3bd bef5 5abb 948b f83c
00000040: 79d9 85bc ada9 c83d 5556 473c 9974 a8bc
00000050: 801e 5ebb bce2 98bc b3cb a1bd 1fd9 7f3d
00000060: 087b 7fbd 4093 1a3d 8131 fbbc d97e a43d
00000070: 0a9a edbd 10b4 90bd 7311 48bd 5c71 95bd
00000080: 4346 243d 19c1 93bd 1eae 6dbc ba9b d43d
00000090: ba52 71bd 94a2 adbd 5db0 1abd 9d6e 593c
000000a0: 081a 2dbc f527 cd3c 1ed0 babd c145 8dbd
000000b0: 9722 6d3e 8a54 0cbd 35c7 573c 4e77 96bd
000000c0: b13f febc ba49 23bd e638 33bc 6adc b9bc
000000d0: 47b1 85bd a59b 503b e85c 6cbd 8e3a d4bc
000000e0: 6e2e 90bd 1253 e23b 939a ec3c 10e0 ffba
000000f0: dd72 7dbd 7eed 75bb e764 54bd 4ca8 a7bd
00000100: 8e34 1dbc f0cd fdbc ca7d 493b f5b3 10bd
00000110: eb2b 8cbd a47d 2e3e 6d80 b53c d634 aabc
00000120: 419d 773c 4a7f eb3c 5c75 103e 9335 12be
00000130: 58d3 5b3e 6c47 88bd 02ae 30bd 08e2 ddbd
00000140: c283 7a3e c51f 933d 0de6 0bbc ffa9 3a3d
00000150: 1112 7fbd 4a40 aabd 040e 62bd 5ac4 35bd
00000160: 1859 27bc 0270 69be 67d2 25bc de39 cabc
00000170: bb15 2c3e e39c edbc ed99 ec3d b0a9 82bd
00000180: 8e7f 4d3c 5485 4bbc 6253 babc 94ba afbc
00000190: 950d b9bd f67b 003e f057 e0bc 7233 96bd
000001a0: 175d c9bd ab51 233e b4dd a0bd e0d6 653d
000001b0: 074f 4cbd 850c 1fbd 99d6 afbd fed6 0dbd
000001c0: f3d6 85bc 77ed a13d d08f fcbb de6c 8c3d
000001d0: 0874 89bd cd47 39bd 7776 7abc ca8c 0dbe
000001e0: fd04 69bd 019e 02bd f0be 82bd 7201 87bd
000001f0: 4e0a 8cbd 6ecc b03c 98d4 80bd 55c3 50bd
00000200: 1930 0ebd 6160 91bd 250f 83bb 0feb b83c
00000210: 9b8b cabb f8f0 b0bc 6f36 fc3e 4348 e8bc
00000220: 5b11 0abd 4bd0 24bd 0269 7bbb 542e 00be
00000230: 8b1b 79bd 0e69 63bd 3ed9 6ebd 6c06 6dbd
00000240: 9455 363c f917 0f3c eb5b d9bc a013 aabd
00000250: b794 7b3b 21f8 903c b5f7 583d 5e76 57bb
00000260: a935 143d 11cd 7dbd 4f97 f4ba d3f4 e0bd
00000270: 62e4 81bb ac73 8dbc eda0 fdbd 7e7c 38bd
00000280: 9fbd 1c3f c270 a7bc 97b1 33bd 96b1 863c
00000290: 5abf d03b 403c dfbc f5d6 0fbd b5df 5c3d
000002a0: 8836 e5bd 8964 0f3d 3d34 81bd 453b ae3d
000002b0: 51a4 27bd 46a4 57bc 7451 68bd b7f3 81bc
000002c0: c4d3 87bd efab afbc 39d7 aabd 9eba 1c3f
000002d0: b0da 83bd acee 883d d94c 3b3d d8b8 aebd
000002e0: a144 2cbd
-0.080287166 0.025946658 -0.027305407 0.055808958 -0.051207043 -0.010629213 0.11994459 0.0863273
-0.07908283 -0.010069603 -0.033359762 -0.0012311622 -0.084277526 -0.10305104 -0.0033410634 0.030339994
-0.01633905 0.09797988 0.012166579 -0.02056341 -0.003389269 -0.018662803 -0.07900181 0.062462922
-0.06237319 0.037738085 -0.030663254 0.08032007 -0.11601646 -0.07065594 -0.048844766 -0.07297012
0.04010607 -0.07214565 -0.014506845 0.10381265 -0.058916785 -0.08478275 -0.03776585 0.013271001
-0.010565288 0.025043467 -0.091217265 -0.0689807 0.23157726 -0.03426031 0.013170053 -0.07346974
-0.03103623 -0.039865233 -0.010938859 -0.02268811 -0.065279536 0.0031831053 -0.05770579 -0.025906827
-0.07040106 0.0069068754 0.0288823 -0.0019521732 -0.06187712 -0.003752559 -0.05185404 -0.08186397
-0.00959505 -0.030981988 0.0030745142 -0.03532787 -0.06844314 0.17040116 0.022155965 -0.020777147
0.015113176 0.02874722 0.14107269 -0.1427825 0.2146734 -0.06654248 -0.043134697 -0.10834128
0.24464324 0.07183794 -0.008538735 0.045572277 -0.06227309 -0.083130434 -0.055189148 -0.04437671
-0.010214113 -0.22796634 -0.010120965 -0.024685796 0.16805165 -0.029005473 0.115527965 -0.063800216
0.012542618 -0.012421925 -0.022744838 -0.021451272 -0.09035794 0.12547287 -0.027385682 -0.07334031
-0.098322086 0.15949123 -0.078547865 0.056113124 -0.049880054 -0.0388303 -0.08585853 -0.03462886
-0.016337847 0.07906621 -0.0077075735 0.06856702 -0.06711584 -0.04523449 -0.015287033 -0.13823238
-0.056889523 -0.031888966 -0.06384075 -0.065920725 -0.06837903 0.021581855 -0.06290549 -0.050967533
-0.03471384 -0.07098461 -0.003999608 0.022573022 -0.006181193 -0.021599278 0.4926028 -0.02835477
-0.033707958 -0.040237706 -0.003836215 -0.12517673 -0.060817283 -0.05552011 -0.058312647 -0.057867453
0.011128802 0.008733743 -0.026533088 -0.083045244 0.0038388202 0.017696442 0.052970607 -0.0032876949
0.036183987 -0.061963145 -0.0018660816 -0.109841965 -0.003963993 -0.01726707 -0.1238421 -0.0450406
0.6122684 -0.02043951 -0.043870535 0.016442101 0.006370467 -0.02725041 -0.03511711 0.05392428
-0.11192042 0.035007987 -0.06308792 0.085073985 -0.04092819 -0.013161724 -0.056718305 -0.015863283
-0.06632188 -0.021444289 -0.08341832 0.61222255 -0.06438196 0.06686148 0.045727585 -0.0853135
-0.042057637

fc3.weight f4 [4, 185]
00000000: edc7 fa3d ffe2 57be 2588 97bc 7b80 bcbe
00000010: 6c7c 293e 9908 c4be b477 1d3e 8c72 453d
00000020: d212 d0bc 499b 49bc 2e5d ff3c 9d44 483e
00000030: 8246 bbbd f5a2 873d 22cf e1bd fb5a b5be
00000040: 71cb 643e 6c18 c03d 28c4 fdbe 2738 80bd
00000050: 4892 523e 9c5c 3dbe c0a2 6f3d 4b05 fc3d
00000060: 5a37 76be 1a8d c03e 4f3a 843d 2bdb 8c3e
00000070: 1090 10be 30a7 3b3c eede abbe 9bcc 21be
00000080: c653 aa3d 2580 0cbc 5d0e c53d 4728 1c3d
00000090: ced0 303c 31b6 f73c 5a7c 71bd b500 9abc
000000a0: 5277 5fbc 3458 cb3c c1e9 ea3d 139c a53d
000000b0: 6fc7 ef3d ddca a93d cfc3 353d c50d 2c3e
000000c0: 8d38 90bb 0b88 513c bfd8 73bd 578e 0c3e
000000d0: ae65 28bd 29ec ee3d 787b c3be b06a 5c3d
000000e0: 7b4b 353e bfef 82bd 0064 283d 63b2 953d
000000f0: dd93 fbbc f2a9 2a3e 6aa5 da3b 2a1c 9cbd
00000100: 84dd 853d 60df cc3c 4220 103d c714 51bd
00000110: 336b 313d 49c6 923d f1fb 5f3d bccb 07bd
00000120: 579f 08be b776 203d e42b fe3d 67e1 86be
00000130: 4565 ea3c 1e76 bdbe b979 b7bd ce9b 0c3e
00000140: b80d db3d 7eeb aa3d 24a8 503c f289 0f3e
00000150: cd2a 833c 7924 853d 39b9 b8bc 60c7 e0bb
00000160: 6265 70bc cdfe 67bd e33a 0abe c44b 02be
00000170: 6e0a 5b3d 0a14 65bd 4c09 a33e 6868 e53c
00000180: 815d 143c eb58 8c3e c19c 6d3e 39b9 053e
00000190: 72f9 f93b 00ee 613d 319c 83bc 9cb0 e83d
000001a0: d9ba bdbe bc6d d33c d0bc 0cbc 613c 9c3e
000001b0: 794c 3d3d b351 a23e e029 1d3e a94f 5a3d
000001c0: 1b8f a4bd 6320 d93d 0978 9d3d 6788 e2bb
000001d0: 4785 563c 06c9 73bc 163c 393d 089a afbd
000001e0: 4703 313d ce80 20bd f5ff ff3c 1c03 c03c
000001f0: 5ef3 8abe 4855 293e 4c3c 41bd 2e5e 8e3d
00000200: ce83 39bd 0e05 463d da94 3c3d 433e a83d
00000210: af32 4c3e 1755 37bd 34cb 4b3d b8c2 4ebd
00000220: cec2 d3bd 63e5 76bd f387 363d 8888 b9bc
00000230: d351 433d 1fdc 10be 0548 1abe 88be 5bbe
00000240: e139 193e a0cc 2a3e 3d11 1d3d 4a87 863d
00000250: 8c2d 9c3c 005a 3d3d 7573 903d 35cc 1fbe
00000260: a077 4c3d da49 bbbd 4cd8 b13c 9d8c d73d
00000270: 329d dfbd 09b8 833d 9dd5 c1bd 9fbe 4abe
00000280: 47ce 3c3e 4ec6 b13d 2d1a 213e 928d fe3c
00000290: 9cb8 f9bb 44cd 1f3e 5611 2c3e 045e 5b3d
000002a0: 660d 1ebe 6b44 2c3e 5818 a73c 2285 f03d
000002b0: 8455 1abf 0a6f dd3c 51b0 f5bc 5970 53bd
000002c0: 8864 103e a068 903d 4f75 52bd 9e5b 173e
000002d0: 1704 843d e19e 9b3c 14f6 03bf 439b 2cbd
000002e0: 21da 9abe adaa efbd bb26 82be bd18 c2bd
000002f0: e35b 063d 8a6a 6e3e ea4e f9bc 6287 353e
00000300: 65bc 88bd d7d2 853b a154 02bd 1291 9abb
00000310: 9b3b ef3d 87e1 5cbd e529 98be d1e7 f03c
00000320: d1db 103e 0f22 f0bb f195 083e f964 1ebe
00000330: 45ec c23c 62f4 b43c b5b4 16be 4823 693d
00000340: 28a5 1d3e 06dc 8abd 07c3 ca3e 93ca 37bc
00000350: b6cb 5d3e b54b 6c3c d97a 2d3d c5c6 48bd
00000360: 7a5b 8dbd 8f43 443e ea91 1abc f72c 3a3e
00000370: b3d8 103d d848 98bd 7333 b03d 18b7 9e3d
00000380: 7303 f6bd e354 dbbc 8406 2b3d 0ec7 2c3d
00000390: 3a5d 40be 7e61 d33d 2f52 f1bd 865e 2f3e
000003a0: 4633 dd3d afb8 11bc 1d49 b0bc 3e77 74bc
000003b0: fa39 b13b 1467 d3bc afe1 363e 372a fbbd
000003c0: d5af bbbc 6872 2f3e 5dd3 073e 7a79 efbe
000003d0: 022c 5a3e ba2c 6c3d ea74 9b3c 21c3 9d3d
000003e0: 7ec2 0abe 4806 ca3d 97a6 09bc 2599 913e
000003f0: be67 303e 1fdd 173e 3d1d a83d 59c1 0e3e
0.12245164 -0.21082686 -0.018497536 -0.36816773 0.1655137 -0.3828781 0.15377694 0.048204944
-0.0253996 -0.012305089 0.031172361 0.19557424 -0.09144308 0.066228785 -0.110258356 -0.35420975
0.22343232 0.09379658 -0.49563718 -0.0626071 0.20563614 -0.18492359 0.05850482 0.12305697
-0.24044552 0.37607652 0.06456434 0.27510962 -0.14117455 0.011453435 -0.3356852 -0.15800707
0.0831676 -0.008575474 0.0962188 0.03812435 0.01079197 0.030238243 -0.05895648 -0.018799165
-0.013639288 0.024822332 0.11470366 0.080864094 0.11707961 0.08290646 0.04437619 0.16802128
-0.0044012726 0.012788783 -0.059532877 0.13726173 -0.041112594 0.11666138 -0.38180137 0.053812683
0.17704575 -0.06393384 0.041110992 0.07309415 -0.030710155 0.16666391 0.006672551 -0.07622559
0.065363914 0.025008857 0.035187013 -0.051045205 0.043315124 0.07166726 0.05468363 -0.03315328
-0.13342033 0.039175715 0.12410715 -0.26343843 0.028612742 -0.3700418 -0.08958764 0.1373131
0.10695976 0.08345698 0.0127354 0.14017466 0.01601162 0.06501097 -0.022549259 -0.006859705
-0.014672609 -0.05663948 -0.13499026 -0.12724215 0.053476743 -0.055927314 0.3184303 0.028003886
0.009055496 0.2741159 0.23204328 0.13058938 0.007628613 0.055158615 -0.016065689 0.113618106
-0.37056616 0.025809161 -0.008589938 0.30514815 0.046215508 0.31702957 0.15348005 0.053298626
-0.08035108 0.106018804 0.076889105 -0.006913233 0.013093299 -0.014879471 0.045223318 -0.08574301
0.043216016 -0.039185338 0.03124998 0.023438983 -0.271388 0.16536438 -0.047176644 0.06951557
-0.045291714 0.048344664 0.046040393 0.082150005 0.1994121 -0.044758882 0.049754336 -0.050478667
-0.103398904 -0.060277354 0.044563245 -0.022648111 0.047685456 -0.1414647 -0.15066536 -0.214594
0.14963485 0.1667962 0.038346518 0.06568773 0.019064687 0.04622841 0.07053272 -0.15605243
0.04991877 -0.091449454 0.021709584 0.10524867 -0.109186545 0.06431586 -0.094645716 -0.19799279
0.18438064 0.08680402 0.15732642 0.031073365 -0.007620884 0.15605646 0.16803488 0.053556457
-0.15434799 0.16822974 0.02039735 0.11744143 -0.60286736 0.027030487 -0.0299913 -0.051620815
0.1410085 0.07051206 -0.051381405 0.14781043 0.064460926 0.018996658 -0.5154736 -0.042140257
-0.30244544 -0.11702476 -0.25420174 -0.09477375 0.032802474 0.23282829 -0.030433137 0.17727426
-0.066765584 0.004083972 -0.03181899 -0.0047170008 0.11681291 -0.053926017 -0.29719463 0.029407414
0.14146353 -0.007328279 0.13338448 -0.15468206 0.023794303 0.022089187 -0.14717372 0.056918412
0.15395033 -0.067802474 0.3960192 -0.011217731 0.21659741 0.014422347 0.042353485 -0.049017686
-0.069022134 0.19166397 -0.009434203 0.18181215 0.03536291 -0.07435769 0.08603563 0.07749766
-0.12012377 -0.026773876 0.04175426 0.04218202 -0.18785563 0.103213295 -0.117832534 0.17125902
0.10800795 -0.00889413 -0.021519238 -0.014921008 0.0054085227 -0.025805987 0.17859529 -0.12263911
-0.022910992 0.17133486 0.13264222 -0.46772367 0.2130585 0.057659842 0.018976647 0.077032335
-0.13550755 0.09864479 -0.0084015345 0.28437153 0.17227075 0.14830445 0.08208702 0.13940944

fc3.bias f4 [4]
00000000: 5a2d d13e a494 a53e 3564 9c3e 4df0 b53e
0.40854913 0.32339966 0.30545202 0.35534897
